…
   "execution_count": 37,
   "metadata": {
    "colab": {},
    "colab_type": "code",
    "id": "1xJZ5glPPCRz"
   },
   "outputs": [
    {
     "name": "stdout",
     "output_type": "stream",
     "text": [
      "Model: \"inception_v3\"\n",
      "__________________________________________________________________________________________________\n",
      "Layer (type)                    Output Shape         Param #     Connected to                     \n",
      "==================================================================================================\n",
      "input_3 (InputLayer)            [(None, 150, 150, 3) 0                                            \n",
      "__________________________________________________________________________________________________\n",
      "conv2d_188 (Conv2D)             (None, 74, 74, 32)   864         input_3[0][0]                    \n",
      "__________________________________________________________________________________________________\n",
      "batch_normalization_188 (BatchN (None, 74, 74, 32)   96          conv2d_188[0][0]                 \n",
      "__________________________________________________________________________________________________\n",
      "activation_188 (Activation)     (None, 74, 74, 32)   0           batch_normalization_188[0][0]    \n",
      "__________________________________________________________________________________________________\n",
      "conv2d_189 (Conv2D)             (None, 72, 72, 32)   9216        activation_188[0][0]             \n",
      "__________________________________________________________________________________________________\n",
      "batch_normalization_189 (BatchN (None, 72, 72, 32)   96          conv2d_189[0][0]                 \n",
      "__________________________________________________________________________________________________\n",
      "activation_189 (Activation)     (None, 72, 72, 32)   0           batch_normalization_189[0][0]    \n",
      "__________________________________________________________________________________________________\n",
      "conv2d_190 (Conv2D)             (None, 72, 72, 64)   18432       activation_189[0][0]             \n",
      "__________________________________________________________________________________________________\n",
      "batch_normalization_190 (BatchN (None, 72, 72, 64)   192         conv2d_190[0][0]                 \n",
      "__________________________________________________________________________________________________\n",
      "activation_190 (Activation)     (None, 72, 72, 64)   0           batch_normalization_190[0][0]    \n",
      "__________________________________________________________________________________________________\n",
      "max_pooling2d_8 (MaxPooling2D)  (None, 35, 35, 64)   0           activation_190[0][0]             \n",
      "__________________________________________________________________________________________________\n",
      "conv2d_191 (Conv2D)             (None, 35, 35, 80)   5120        max_pooling2d_8[0][0]            \n",
      "__________________________________________________________________________________________________\n",
      "batch_normalization_191 (BatchN (None, 35, 35, 80)   240         conv2d_191[0][0]                 \n",
      "__________________________________________________________________________________________________\n",
      "activation_191 (Activation)     (None, 35, 35, 80)   0           batch_normalization_191[0][0]    \n",
      "__________________________________________________________________________________________________\n",
      "conv2d_192 (Conv2D)             (None, 33, 33, 192)  138240      activation_191[0][0]             \n",
      "__________________________________________________________________________________________________\n",
      "batch_normalization_192 (BatchN (None, 33, 33, 192)  576         conv2d_192[0][0]                 \n",
      "__________________________________________________________________________________________________\n",
      "activation_192 (Activation)     (None, 33, 33, 192)  0           batch_normalization_192[0][0]    \n",
      "__________________________________________________________________________________________________\n",
      "max_pooling2d_9 (MaxPooling2D)  (None, 16, 16, 192)  0           activation_192[0][0]             \n",
      "__________________________________________________________________________________________________\n",
      "conv2d_196 (Conv2D)             (None, 16, 16, 64)   12288       max_pooling2d_9[0][0]            \n",
      "__________________________________________________________________________________________________\n",
      "batch_normalization_196 (BatchN (None, 16, 16, 64)   192         conv2d_196[0][0]                 \n",
      "__________________________________________________________________________________________________\n",
      "activation_196 (Activation)     (None, 16, 16, 64)   0           batch_normalization_196[0][0]    \n",
      "__________________________________________________________________________________________________\n",
      "conv2d_194 (Conv2D)             (None, 16, 16, 48)   9216        max_pooling2d_9[0][0]            \n",
      "__________________________________________________________________________________________________\n",
      "conv2d_197 (Conv2D)             (None, 16, 16, 96)   55296       activation_196[0][0]             \n",
      "__________________________________________________________________________________________________\n",
      "batch_normalization_194 (BatchN (None, 16, 16, 48)   144         conv2d_194[0][0]                 \n",
      "__________________________________________________________________________________________________\n",
      "batch_normalization_197 (BatchN (None, 16, 16, 96)   288         conv2d_197[0][0]                 \n",
      "__________________________________________________________________________________________________\n",
      "activation_194 (Activation)     (None, 16, 16, 48)   0           batch_normalization_194[0][0]    \n",
      "__________________________________________________________________________________________________\n",
      "activation_197 (Activation)     (None, 16, 16, 96)   0           batch_normalization_197[0][0]    \n",
      "__________________________________________________________________________________________________\n",
      "average_pooling2d_18 (AveragePo (None, 16, 16, 192)  0           max_pooling2d_9[0][0]            \n",
      "__________________________________________________________________________________________________\n",
      "conv2d_193 (Conv2D)             (None, 16, 16, 64)   12288       max_pooling2d_9[0][0]            \n",
      "__________________________________________________________________________________________________\n",
      "conv2d_195 (Conv2D)             (None, 16, 16, 64)   76800       activation_194[0][0]             \n",
      "__________________________________________________________________________________________________\n",
      "conv2d_198 (Conv2D)             (None, 16, 16, 96)   82944       activation_197[0][0]             \n",
      "__________________________________________________________________________________________________\n",
      "conv2d_199 (Conv2D)             (None, 16, 16, 32)   6144        average_pooling2d_18[0][0]       \n",
      "__________________________________________________________________________________________________\n",
      "batch_normalization_193 (BatchN (None, 16, 16, 64)   192         conv2d_193[0][0]                 \n",
      "__________________________________________________________________________________________________\n",
      "batch_normalization_195 (BatchN (None, 16, 16, 64)   192         conv2d_195[0][0]                 \n",
      "__________________________________________________________________________________________________\n",
      "batch_normalization_198 (BatchN (None, 16, 16, 96)   288         conv2d_198[0][0]                 \n",
      "__________________________________________________________________________________________________\n",
      "batch_normalization_199 (BatchN (None, 16, 16, 32)   96          conv2d_199[0][0]                 \n",
      "__________________________________________________________________________________________________\n",
      "activation_193 (Activation)     (None, 16, 16, 64)   0           batch_normalization_193[0][0]    \n",
      "__________________________________________________________________________________________________\n",
      "activation_195 (Activation)     (None, 16, 16, 64)   0           batch_normalization_195[0][0]    \n",
      "__________________________________________________________________________________________________\n",
      "activation_198 (Activation)     (None, 16, 16, 96)   0           batch_normalization_198[0][0]    \n",
      "__________________________________________________________________________________________________\n",
      "activation_199 (Activation)     (None, 16, 16, 32)   0           batch_normalization_199[0][0]    \n",
      "__________________________________________________________________________________________________\n",
      "mixed0 (Concatenate)            (None, 16, 16, 256)  0           activation_193[0][0]             \n",
      "                                                                 activation_195[0][0]             \n",
      "                                                                 activation_198[0][0]             \n",
      "                                                                 activation_199[0][0]             \n",
      "__________________________________________________________________________________________________\n",
      "conv2d_203 (Conv2D)             (None, 16, 16, 64)   16384       mixed0[0][0]                     \n",
      "__________________________________________________________________________________________________\n",
      "batch_normalization_203 (BatchN (None, 16, 16, 64)   192         conv2d_203[0][0]                 \n",
      "__________________________________________________________________________________________________\n",
      "activation_203 (Activation)     (None, 16, 16, 64)   0           batch_normalization_203[0][0]    \n",
      "__________________________________________________________________________________________________\n",
      "conv2d_201 (Conv2D)             (None, 16, 16, 48)   12288       mixed0[0][0]                     \n",
      "__________________________________________________________________________________________________\n",
      "conv2d_204 (Conv2D)             (None, 16, 16, 96)   55296       activation_203[0][0]             \n",
      "__________________________________________________________________________________________________\n",
      "batch_normalization_201 (BatchN (None, 16, 16, 48)   144         conv2d_201[0][0]                 \n",
      "__________________________________________________________________________________________________\n",
      "batch_normalization_204 (BatchN (None, 16, 16, 96)   288         conv2d_204[0][0]                 \n",
      "__________________________________________________________________________________________________\n",
      "activation_201 (Activation)     (None, 16, 16, 48)   0           batch_normalization_201[0][0]    \n",
      "__________________________________________________________________________________________________\n",
      "activation_204 (Activation)     (None, 16, 16, 96)   0           batch_normalization_204[0][0]    \n",
      "__________________________________________________________________________________________________\n",
      "average_pooling2d_19 (AveragePo (None, 16, 16, 256)  0           mixed0[0][0]                     \n",
      "__________________________________________________________________________________________________\n",
      "conv2d_200 (Conv2D)             (None, 16, 16, 64)   16384       mixed0[0][0]                     \n",
      "__________________________________________________________________________________________________\n",
      "conv2d_202 (Conv2D)             (None, 16, 16, 64)   76800       activation_201[0][0]             \n",
      "__________________________________________________________________________________________________\n",
      "conv2d_205 (Conv2D)             (None, 16, 16, 96)   82944       activation_204[0][0]             \n",
      "__________________________________________________________________________________________________\n",
      "conv2d_206 (Conv2D)             (None, 16, 16, 64)   16384       average_pooling2d_19[0][0]       \n",
      "__________________________________________________________________________________________________\n",
      "batch_normalization_200 (BatchN (None, 16, 16, 64)   192         conv2d_200[0][0]                 \n",
      "__________________________________________________________________________________________________\n",
      "batch_normalization_202 (BatchN (None, 16, 16, 64)   192         conv2d_202[0][0]                 \n",
      "__________________________________________________________________________________________________\n",
      "batch_normalization_205 (BatchN (None, 16, 16, 96)   288         conv2d_205[0][0]                 \n",
      "__________________________________________________________________________________________________\n",
      "batch_normalization_206 (BatchN (None, 16, 16, 64)   192         conv2d_206[0][0]                 \n",
      "__________________________________________________________________________________________________\n",
      "activation_200 (Activation)     (None, 16, 16, 64)   0           batch_normalization_200[0][0]    \n",
      "__________________________________________________________________________________________________\n",
      "activation_202 (Activation)     (None, 16, 16, 64)   0           batch_normalization_202[0][0]    \n",
      "__________________________________________________________________________________________________\n",
      "activation_205 (Activation)     (None, 16, 16, 96)   0           batch_normalization_205[0][0]    \n",
      "__________________________________________________________________________________________________\n",
      "activation_206 (Activation)     (None, 16, 16, 64)   0           batch_normalization_206[0][0]    \n",
      "__________________________________________________________________________________________________\n",
      "mixed1 (Concatenate)            (None, 16, 16, 288)  0           activation_200[0][0]             \n",
      "                                                                 activation_202[0][0]             \n",
      "                                                                 activation_205[0][0]             \n",
      "                                                                 activation_206[0][0]             \n",
      "__________________________________________________________________________________________________\n",
      "conv2d_210 (Conv2D)             (None, 16, 16, 64)   18432       mixed1[0][0]                     \n",
      "__________________________________________________________________________________________________\n",
      "batch_normalization_210 (BatchN (None, 16, 16, 64)   192         conv2d_210[0][0]                 \n",
      "__________________________________________________________________________________________________\n",
      "activation_210 (Activation)     (None, 16, 16, 64)   0           batch_normalization_210[0][0]    \n",
      "__________________________________________________________________________________________________\n",
      "conv2d_208 (Conv2D)             (None, 16, 16, 48)   13824       mixed1[0][0]                     \n",
      "__________________________________________________________________________________________________\n",
      "conv2d_211 (Conv2D)             (None, 16, 16, 96)   55296       activation_210[0][0]             \n",
      "__________________________________________________________________________________________________\n",
      "batch_normalization_208 (BatchN (None, 16, 16, 48)   144         conv2d_208[0][0]                 \n",
      "__________________________________________________________________________________________________\n",
      "batch_normalization_211 (BatchN (None, 16, 16, 96)   288         conv2d_211[0][0]                 \n",
      "__________________________________________________________________________________________________\n",
      "activation_208 (Activation)     (None, 16, 16, 48)   0           batch_normalization_208[0][0]    \n",
      "__________________________________________________________________________________________________\n",
      "activation_211 (Activation)     (None, 16, 16, 96)   0           batch_normalization_211[0][0]    \n",
      "__________________________________________________________________________________________________\n",
      "average_pooling2d_20 (AveragePo (None, 16, 16, 288)  0           mixed1[0][0]                     \n",
      "__________________________________________________________________________________________________\n",
      "conv2d_207 (Conv2D)             (None, 16, 16, 64)   18432       mixed1[0][0]                     \n",
      "__________________________________________________________________________________________________\n",
      "conv2d_209 (Conv2D)             (None, 16, 16, 64)   76800       activation_208[0][0]             \n",
      "__________________________________________________________________________________________________\n",
      "conv2d_212 (Conv2D)             (None, 16, 16, 96)   82944       activation_211[0][0]             \n",
      "__________________________________________________________________________________________________\n",
      "conv2d_213 (Conv2D)             (None, 16, 16, 64)   18432       average_pooling2d_20[0][0]       \n",
      "__________________________________________________________________________________________________\n",
      "batch_normalization_207 (BatchN (None, 16, 16, 64)   192         conv2d_207[0][0]                 \n",
      "__________________________________________________________________________________________________\n",
      "batch_normalization_209 (BatchN (None, 16, 16, 64)   192         conv2d_209[0][0]                 \n",
      "__________________________________________________________________________________________________\n",
      "batch_normalization_212 (BatchN (None, 16, 16, 96)   288         conv2d_212[0][0]                 \n",
      "__________________________________________________________________________________________________\n",
      "batch_normalization_213 (BatchN (None, 16, 16, 64)   192         conv2d_213[0][0]                 \n",
      "__________________________________________________________________________________________________\n",
      "activation_207 (Activation)     (None, 16, 16, 64)   0           batch_normalization_207[0][0]    \n",
      "__________________________________________________________________________________________________\n",
      "activation_209 (Activation)     (None, 16, 16, 64)   0           batch_normalization_209[0][0]    \n",
      "__________________________________________________________________________________________________\n",
      "activation_212 (Activation)     (None, 16, 16, 96)   0           batch_normalization_212[0][0]    \n",
      "__________________________________________________________________________________________________\n",
      "activation_213 (Activation)     (None, 16, 16, 64)   0           batch_normalization_213[0][0]    \n",
      "__________________________________________________________________________________________________\n",
      "mixed2 (Concatenate)            (None, 16, 16, 288)  0           activation_207[0][0]             \n",
      "                                                                 activation_209[0][0]             \n",
      "                                                                 activation_212[0][0]             \n",
      "                                                                 activation_213[0][0]             \n",
      "__________________________________________________________________________________________________\n",
      "conv2d_215 (Conv2D)             (None, 16, 16, 64)   18432       mixed2[0][0]                     \n",
      "__________________________________________________________________________________________________\n",
      "batch_normalization_215 (BatchN (None, 16, 16, 64)   192         conv2d_215[0][0]                 \n",
      "__________________________________________________________________________________________________\n",
      "activation_215 (Activation)     (None, 16, 16, 64)   0           batch_normalization_215[0][0]    \n",
      "__________________________________________________________________________________________________\n",
      "conv2d_216 (Conv2D)             (None, 16, 16, 96)   55296       activation_215[0][0]             \n",
      "__________________________________________________________________________________________________\n",
      "batch_normalization_216 (BatchN (None, 16, 16, 96)   288         conv2d_216[0][0]                 \n",
      "__________________________________________________________________________________________________\n",
      "activation_216 (Activation)     (None, 16, 16, 96)   0           batch_normalization_216[0][0]    \n",
      "__________________________________________________________________________________________________\n",
      "conv2d_214 (Conv2D)             (None, 7, 7, 384)    995328      mixed2[0][0]                     \n",
      "__________________________________________________________________________________________________\n",
      "conv2d_217 (Conv2D)             (None, 7, 7, 96)     82944       activation_216[0][0]             \n",
      "__________________________________________________________________________________________________\n",
      "batch_normalization_214 (BatchN (None, 7, 7, 384)    1152        conv2d_214[0][0]                 \n",
      "__________________________________________________________________________________________________\n",
      "batch_normalization_217 (BatchN (None, 7, 7, 96)     288         conv2d_217[0][0]                 \n",
      "__________________________________________________________________________________________________\n",
      "activation_214 (Activation)     (None, 7, 7, 384)    0           batch_normalization_214[0][0]    \n",
      "__________________________________________________________________________________________________\n",
      "activation_217 (Activation)     (None, 7, 7, 96)     0           batch_normalization_217[0][0]    \n",
      "__________________________________________________________________________________________________\n",
      "max_pooling2d_10 (MaxPooling2D) (None, 7, 7, 288)    0           mixed2[0][0]                     \n",
      "__________________________________________________________________________________________________\n",
      "mixed3 (Concatenate)            (None, 7, 7, 768)    0           activation_214[0][0]             \n",
      "                                                                 activation_217[0][0]             \n",
      "                                                                 max_pooling2d_10[0][0]           \n",
      "__________________________________________________________________________________________________\n",
      "conv2d_222 (Conv2D)             (None, 7, 7, 128)    98304       mixed3[0][0]                     \n",
      "__________________________________________________________________________________________________\n",
      "batch_normalization_222 (BatchN (None, 7, 7, 128)    384         conv2d_222[0][0]                 \n",
      "__________________________________________________________________________________________________\n",
      "activation_222 (Activation)     (None, 7, 7, 128)    0           batch_normalization_222[0][0]    \n",
      "__________________________________________________________________________________________________\n",
      "conv2d_223 (Conv2D)             (None, 7, 7, 128)    114688      activation_222[0][0]             \n",
      "__________________________________________________________________________________________________\n",
      "batch_normalization_223 (BatchN (None, 7, 7, 128)    384         conv2d_223[0][0]                 \n",
      "__________________________________________________________________________________________________\n",
      "activation_223 (Activation)     (None, 7, 7, 128)    0           batch_normalization_223[0][0]    \n",
      "__________________________________________________________________________________________________\n",
      "conv2d_219 (Conv2D)             (None, 7, 7, 128)    98304       mixed3[0][0]                     \n",
      "__________________________________________________________________________________________________\n",
      "conv2d_224 (Conv2D)             (None, 7, 7, 128)    114688      activation_223[0][0]             \n",
      "__________________________________________________________________________________________________\n",
      "batch_normalization_219 (BatchN (None, 7, 7, 128)    384         conv2d_219[0][0]                 \n",
      "__________________________________________________________________________________________________\n",
      "batch_normalization_224 (BatchN (None, 7, 7, 128)    384         conv2d_224[0][0]                 \n",
      "__________________________________________________________________________________________________\n",
      "activation_219 (Activation)     (None, 7, 7, 128)    0           batch_normalization_219[0][0]    \n",
      "__________________________________________________________________________________________________\n",
      "activation_224 (Activation)     (None, 7, 7, 128)    0           batch_normalization_224[0][0]    \n",
      "__________________________________________________________________________________________________\n",
      "conv2d_220 (Conv2D)             (None, 7, 7, 128)    114688      activation_219[0][0]             \n",
      "__________________________________________________________________________________________________\n",
      "conv2d_225 (Conv2D)             (None, 7, 7, 128)    114688      activation_224[0][0]             \n",
      "__________________________________________________________________________________________________\n",
      "batch_normalization_220 (BatchN (None, 7, 7, 128)    384         conv2d_220[0][0]                 \n",
      "__________________________________________________________________________________________________\n",
      "batch_normalization_225 (BatchN (None, 7, 7, 128)    384         conv2d_225[0][0]                 \n",
      "__________________________________________________________________________________________________\n",
      "activation_220 (Activation)     (None, 7, 7, 128)    0           batch_normalization_220[0][0]    \n",
      "__________________________________________________________________________________________________\n",
      "activation_225 (Activation)     (None, 7, 7, 128)    0           batch_normalization_225[0][0]    \n",
      "__________________________________________________________________________________________________\n",
      "average_pooling2d_21 (AveragePo (None, 7, 7, 768)    0           mixed3[0][0]                     \n",
      "__________________________________________________________________________________________________\n",
      "conv2d_218 (Conv2D)             (None, 7, 7, 192)    147456      mixed3[0][0]                     \n",
      "__________________________________________________________________________________________________\n",
      "conv2d_221 (Conv2D)             (None, 7, 7, 192)    172032      activation_220[0][0]             \n",
      "__________________________________________________________________________________________________\n",
      "conv2d_226 (Conv2D)             (None, 7, 7, 192)    172032      activation_225[0][0]             \n",
      "__________________________________________________________________________________________________\n",
      "conv2d_227 (Conv2D)             (None, 7, 7, 192)    147456      average_pooling2d_21[0][0]       \n",
      "__________________________________________________________________________________________________\n",
      "batch_normalization_218 (BatchN (None, 7, 7, 192)    576         conv2d_218[0][0]                 \n",
      "__________________________________________________________________________________________________\n",
      "batch_normalization_221 (BatchN (None, 7, 7, 192)    576         conv2d_221[0][0]                 \n",
      "__________________________________________________________________________________________________\n",
      "batch_normalization_226 (BatchN (None, 7, 7, 192)    576         conv2d_226[0][0]                 \n",
      "__________________________________________________________________________________________________\n",
      "batch_normalization_227 (BatchN (None, 7, 7, 192)    576         conv2d_227[0][0]                 \n",
      "__________________________________________________________________________________________________\n",
      "activation_218 (Activation)     (None, 7, 7, 192)    0           batch_normalization_218[0][0]    \n",
      "__________________________________________________________________________________________________\n",
      "activation_221 (Activation)     (None, 7, 7, 192)    0           batch_normalization_221[0][0]    \n",
      "__________________________________________________________________________________________________\n",
      "activation_226 (Activation)     (None, 7, 7, 192)    0           batch_normalization_226[0][0]    \n",
      "__________________________________________________________________________________________________\n",
      "activation_227 (Activation)     (None, 7, 7, 192)    0           batch_normalization_227[0][0]    \n",
      "__________________________________________________________________________________________________\n",
      "mixed4 (Concatenate)            (None, 7, 7, 768)    0           activation_218[0][0]             \n",
      "                                                                 activation_221[0][0]             \n",
      "                                                                 activation_226[0][0]             \n",
      "                                                                 activation_227[0][0]             \n",
      "__________________________________________________________________________________________________\n",
      "conv2d_232 (Conv2D)             (None, 7, 7, 160)    122880      mixed4[0][0]                     \n",
      "__________________________________________________________________________________________________\n",
      "batch_normalization_232 (BatchN (None, 7, 7, 160)    480         conv2d_232[0][0]                 \n",
      "__________________________________________________________________________________________________\n",
      "activation_232 (Activation)     (None, 7, 7, 160)    0           batch_normalization_232[0][0]    \n",
      "__________________________________________________________________________________________________\n",
      "conv2d_233 (Conv2D)             (None, 7, 7, 160)    179200      activation_232[0][0]             \n",
      "__________________________________________________________________________________________________\n",
      "batch_normalization_233 (BatchN (None, 7, 7, 160)    480         conv2d_233[0][0]                 \n",
      "__________________________________________________________________________________________________\n",
      "activation_233 (Activation)     (None, 7, 7, 160)    0           batch_normalization_233[0][0]    \n",
      "__________________________________________________________________________________________________\n",
      "conv2d_229 (Conv2D)             (None, 7, 7, 160)    122880      mixed4[0][0]                     \n",
      "__________________________________________________________________________________________________\n",
      "conv2d_234 (Conv2D)             (None, 7, 7, 160)    179200      activation_233[0][0]             \n",
      "__________________________________________________________________________________________________\n",
      "batch_normalization_229 (BatchN (None, 7, 7, 160)    480         conv2d_229[0][0]                 \n",
      "__________________________________________________________________________________________________\n",
      "batch_normalization_234 (BatchN (None, 7, 7, 160)    480         conv2d_234[0][0]                 \n",
      "__________________________________________________________________________________________________\n",
      "activation_229 (Activation)     (None, 7, 7, 160)    0           batch_normalization_229[0][0]    \n",
      "__________________________________________________________________________________________________\n",
      "activation_234 (Activation)     (None, 7, 7, 160)    0           batch_normalization_234[0][0]    \n",
      "__________________________________________________________________________________________________\n",
      "conv2d_230 (Conv2D)             (None, 7, 7, 160)    179200      activation_229[0][0]             \n",
      "__________________________________________________________________________________________________\n",
      "conv2d_235 (Conv2D)             (None, 7, 7, 160)    179200      activation_234[0][0]             \n",
      "__________________________________________________________________________________________________\n",
      "batch_normalization_230 (BatchN (None, 7, 7, 160)    480         conv2d_230[0][0]                 \n",
      "__________________________________________________________________________________________________\n",
      "batch_normalization_235 (BatchN (None, 7, 7, 160)    480         conv2d_235[0][0]                 \n",
      "__________________________________________________________________________________________________\n",
      "activation_230 (Activation)     (None, 7, 7, 160)    0           batch_normalization_230[0][0]    \n",
      "__________________________________________________________________________________________________\n",
      "activation_235 (Activation)     (None, 7, 7, 160)    0           batch_normalization_235[0][0]    \n",
      "__________________________________________________________________________________________________\n",
      "average_pooling2d_22 (AveragePo (None, 7, 7, 768)    0           mixed4[0][0]                     \n",
      "__________________________________________________________________________________________________\n",
      "conv2d_228 (Conv2D)             (None, 7, 7, 192)    147456      mixed4[0][0]                     \n",
      "__________________________________________________________________________________________________\n",
      "conv2d_231 (Conv2D)             (None, 7, 7, 192)    215040      activation_230[0][0]             \n",
      "__________________________________________________________________________________________________\n",
      "conv2d_236 (Conv2D)             (None, 7, 7, 192)    215040      activation_235[0][0]             \n",
      "__________________________________________________________________________________________________\n",
      "conv2d_237 (Conv2D)             (None, 7, 7, 192)    147456      average_pooling2d_22[0][0]       \n",
      "__________________________________________________________________________________________________\n",
      "batch_normalization_228 (BatchN (None, 7, 7, 192)    576         conv2d_228[0][0]                 \n",
      "__________________________________________________________________________________________________\n",
      "batch_normalization_231 (BatchN (None, 7, 7, 192)    576         conv2d_231[0][0]                 \n",
      "__________________________________________________________________________________________________\n",
      "batch_normalization_236 (BatchN (None, 7, 7, 192)    576         conv2d_236[0][0]                 \n",
      "__________________________________________________________________________________________________\n",
      "batch_normalization_237 (BatchN (None, 7, 7, 192)    576         conv2d_237[0][0]                 \n",
      "__________________________________________________________________________________________________\n",
      "activation_228 (Activation)     (None, 7, 7, 192)    0           batch_normalization_228[0][0]    \n",
      "__________________________________________________________________________________________________\n",
      "activation_231 (Activation)     (None, 7, 7, 192)    0           batch_normalization_231[0][0]    \n",
      "__________________________________________________________________________________________________\n",
      "activation_236 (Activation)     (None, 7, 7, 192)    0           batch_normalization_236[0][0]    \n",
      "__________________________________________________________________________________________________\n",
      "activation_237 (Activation)     (None, 7, 7, 192)    0           batch_normalization_237[0][0]    \n",
      "__________________________________________________________________________________________________\n",
      "mixed5 (Concatenate)            (None, 7, 7, 768)    0           activation_228[0][0]             \n",
      "                                                                 activation_231[0][0]             \n",
      "                                                                 activation_236[0][0]             \n",
      "                                                                 activation_237[0][0]             \n",
      "__________________________________________________________________________________________________\n",
      "conv2d_242 (Conv2D)             (None, 7, 7, 160)    122880      mixed5[0][0]                     \n",
      "__________________________________________________________________________________________________\n",
      "batch_normalization_242 (BatchN (None, 7, 7, 160)    480         conv2d_242[0][0]                 \n",
      "__________________________________________________________________________________________________\n",
      "activation_242 (Activation)     (None, 7, 7, 160)    0           batch_normalization_242[0][0]    \n",
      "__________________________________________________________________________________________________\n",
      "conv2d_243 (Conv2D)             (None, 7, 7, 160)    179200      activation_242[0][0]             \n",
      "__________________________________________________________________________________________________\n",
      "batch_normalization_243 (BatchN (None, 7, 7, 160)    480         conv2d_243[0][0]                 \n",
      "__________________________________________________________________________________________________\n",
      "activation_243 (Activation)     (None, 7, 7, 160)    0           batch_normalization_243[0][0]    \n",
      "__________________________________________________________________________________________________\n",
      "conv2d_239 (Conv2D)             (None, 7, 7, 160)    122880      mixed5[0][0]                     \n",
      "__________________________________________________________________________________________________\n",
      "conv2d_244 (Conv2D)             (None, 7, 7, 160)    179200      activation_243[0][0]             \n",
      "__________________________________________________________________________________________________\n",
      "batch_normalization_239 (BatchN (None, 7, 7, 160)    480         conv2d_239[0][0]                 \n",
      "__________________________________________________________________________________________________\n",
      "batch_normalization_244 (BatchN (None, 7, 7, 160)    480         conv2d_244[0][0]                 \n",
      "__________________________________________________________________________________________________\n",
      "activation_239 (Activation)     (None, 7, 7, 160)    0           batch_normalization_239[0][0]    \n",
      "__________________________________________________________________________________________________\n",
      "activation_244 (Activation)     (None, 7, 7, 160)    0           batch_normalization_244[0][0]    \n",
      "__________________________________________________________________________________________________\n",
      "conv2d_240 (Conv2D)             (None, 7, 7, 160)    179200      activation_239[0][0]             \n",
      "__________________________________________________________________________________________________\n",
      "conv2d_245 (Conv2D)             (None, 7, 7, 160)    179200      activation_244[0][0]             \n",
      "__________________________________________________________________________________________________\n",
      "batch_normalization_240 (BatchN (None, 7, 7, 160)    480         conv2d_240[0][0]                 \n",
      "__________________________________________________________________________________________________\n",
      "batch_normalization_245 (BatchN (None, 7, 7, 160)    480         conv2d_245[0][0]                 \n",
      "__________________________________________________________________________________________________\n",
      "activation_240 (Activation)     (None, 7, 7, 160)    0           batch_normalization_240[0][0]    \n",
      "__________________________________________________________________________________________________\n",
      "activation_245 (Activation)     (None, 7, 7, 160)    0           batch_normalization_245[0][0]    \n",
      "__________________________________________________________________________________________________\n",
      "average_pooling2d_23 (AveragePo (None, 7, 7, 768)    0           mixed5[0][0]                     \n",
      "__________________________________________________________________________________________________\n",
      "conv2d_238 (Conv2D)             (None, 7, 7, 192)    147456      mixed5[0][0]                     \n",
      "__________________________________________________________________________________________________\n",
      "conv2d_241 (Conv2D)             (None, 7, 7, 192)    215040      activation_240[0][0]             \n",
      "__________________________________________________________________________________________________\n",
      "conv2d_246 (Conv2D)             (None, 7, 7, 192)    215040      activation_245[0][0]             \n",
      "__________________________________________________________________________________________________\n",
      "conv2d_247 (Conv2D)             (None, 7, 7, 192)    147456      average_pooling2d_23[0][0]       \n",
      "__________________________________________________________________________________________________\n",
      "batch_normalization_238 (BatchN (None, 7, 7, 192)    576         conv2d_238[0][0]                 \n",
      "__________________________________________________________________________________________________\n",
      "batch_normalization_241 (BatchN (None, 7, 7, 192)    576         conv2d_241[0][0]                 \n",
      "__________________________________________________________________________________________________\n",
      "batch_normalization_246 (BatchN (None, 7, 7, 192)    576         conv2d_246[0][0]                 \n",
      "__________________________________________________________________________________________________\n",
      "batch_normalization_247 (BatchN (None, 7, 7, 192)    576         conv2d_247[0][0]                 \n",
      "__________________________________________________________________________________________________\n",
      "activation_238 (Activation)     (None, 7, 7, 192)    0           batch_normalization_238[0][0]    \n",
      "__________________________________________________________________________________________________\n",
      "activation_241 (Activation)     (None, 7, 7, 192)    0           batch_normalization_241[0][0]    \n",
      "__________________________________________________________________________________________________\n",
      "activation_246 (Activation)     (None, 7, 7, 192)    0           batch_normalization_246[0][0]    \n",
      "__________________________________________________________________________________________________\n",
      "activation_247 (Activation)     (None, 7, 7, 192)    0           batch_normalization_247[0][0]    \n",
      "__________________________________________________________________________________________________\n",
      "mixed6 (Concatenate)            (None, 7, 7, 768)    0           activation_238[0][0]             \n",
      "                                                                 activation_241[0][0]             \n",
      "                                                                 activation_246[0][0]             \n",
      "                                                                 activation_247[0][0]             \n",
      "__________________________________________________________________________________________________\n",
      "conv2d_252 (Conv2D)             (None, 7, 7, 192)    147456      mixed6[0][0]                     \n",
      "__________________________________________________________________________________________________\n",
      "batch_normalization_252 (BatchN (None, 7, 7, 192)    576         conv2d_252[0][0]                 \n",
      "__________________________________________________________________________________________________\n",
      "activation_252 (Activation)     (None, 7, 7, 192)    0           batch_normalization_252[0][0]    \n",
      "__________________________________________________________________________________________________\n",
      "conv2d_253 (Conv2D)             (None, 7, 7, 192)    258048      activation_252[0][0]             \n",
      "__________________________________________________________________________________________________\n",
      "batch_normalization_253 (BatchN (None, 7, 7, 192)    576         conv2d_253[0][0]                 \n",
      "__________________________________________________________________________________________________\n",
      "activation_253 (Activation)     (None, 7, 7, 192)    0           batch_normalization_253[0][0]    \n",
      "__________________________________________________________________________________________________\n",
      "conv2d_249 (Conv2D)             (None, 7, 7, 192)    147456      mixed6[0][0]                     \n",
      "__________________________________________________________________________________________________\n",
      "conv2d_254 (Conv2D)             (None, 7, 7, 192)    258048      activation_253[0][0]             \n",
      "__________________________________________________________________________________________________\n",
      "batch_normalization_249 (BatchN (None, 7, 7, 192)    576         conv2d_249[0][0]                 \n",
      "__________________________________________________________________________________________________\n",
      "batch_normalization_254 (BatchN (None, 7, 7, 192)    576         conv2d_254[0][0]                 \n",
      "__________________________________________________________________________________________________\n",
      "activation_249 (Activation)     (None, 7, 7, 192)    0           batch_normalization_249[0][0]    \n",
      "__________________________________________________________________________________________________\n",
      "activation_254 (Activation)     (None, 7, 7, 192)    0           batch_normalization_254[0][0]    \n",
      "__________________________________________________________________________________________________\n",
      "conv2d_250 (Conv2D)             (None, 7, 7, 192)    258048      activation_249[0][0]             \n",
      "__________________________________________________________________________________________________\n",
      "conv2d_255 (Conv2D)             (None, 7, 7, 192)    258048      activation_254[0][0]             \n",
      "__________________________________________________________________________________________________\n",
      "batch_normalization_250 (BatchN (None, 7, 7, 192)    576         conv2d_250[0][0]                 \n",
      "__________________________________________________________________________________________________\n",
      "batch_normalization_255 (BatchN (None, 7, 7, 192)    576         conv2d_255[0][0]                 \n",
      "__________________________________________________________________________________________________\n",
      "activation_250 (Activation)     (None, 7, 7, 192)    0           batch_normalization_250[0][0]    \n",
      "__________________________________________________________________________________________________\n",
      "activation_255 (Activation)     (None, 7, 7, 192)    0           batch_normalization_255[0][0]    \n",
      "__________________________________________________________________________________________________\n",
      "average_pooling2d_24 (AveragePo (None, 7, 7, 768)    0           mixed6[0][0]                     \n",
      "__________________________________________________________________________________________________\n",
      "conv2d_248 (Conv2D)             (None, 7, 7, 192)    147456      mixed6[0][0]                     \n",
      "__________________________________________________________________________________________________\n",
      "conv2d_251 (Conv2D)             (None, 7, 7, 192)    258048      activation_250[0][0]             \n",
      "__________________________________________________________________________________________________\n",
      "conv2d_256 (Conv2D)             (None, 7, 7, 192)    258048      activation_255[0][0]             \n",
      "__________________________________________________________________________________________________\n",
      "conv2d_257 (Conv2D)             (None, 7, 7, 192)    147456      average_pooling2d_24[0][0]       \n",
      "__________________________________________________________________________________________________\n",
      "batch_normalization_248 (BatchN (None, 7, 7, 192)    576         conv2d_248[0][0]                 \n",
      "__________________________________________________________________________________________________\n",
      "batch_normalization_251 (BatchN (None, 7, 7, 192)    576         conv2d_251[0][0]                 \n",
      "__________________________________________________________________________________________________\n",
      "batch_normalization_256 (BatchN (None, 7, 7, 192)    576         conv2d_256[0][0]                 \n",
      "__________________________________________________________________________________________________\n",
      "batch_normalization_257 (BatchN (None, 7, 7, 192)    576         conv2d_257[0][0]                 \n",
      "__________________________________________________________________________________________________\n",
      "activation_248 (Activation)     (None, 7, 7, 192)    0           batch_normalization_248[0][0]    \n",
      "__________________________________________________________________________________________________\n",
      "activation_251 (Activation)     (None, 7, 7, 192)    0           batch_normalization_251[0][0]    \n",
      "__________________________________________________________________________________________________\n",
      "activation_256 (Activation)     (None, 7, 7, 192)    0           batch_normalization_256[0][0]    \n",
      "__________________________________________________________________________________________________\n",
      "activation_257 (Activation)     (None, 7, 7, 192)    0           batch_normalization_257[0][0]    \n",
      "__________________________________________________________________________________________________\n",
      "mixed7 (Concatenate)            (None, 7, 7, 768)    0           activation_248[0][0]             \n",
      "                                                                 activation_251[0][0]             \n",
      "                                                                 activation_256[0][0]             \n",
      "                                                                 activation_257[0][0]             \n",
      "__________________________________________________________________________________________________\n",
      "conv2d_260 (Conv2D)             (None, 7, 7, 192)    147456      mixed7[0][0]                     \n",
      "__________________________________________________________________________________________________\n",
      "batch_normalization_260 (BatchN (None, 7, 7, 192)    576         conv2d_260[0][0]                 \n",
      "__________________________________________________________________________________________________\n",
      "activation_260 (Activation)     (None, 7, 7, 192)    0           batch_normalization_260[0][0]    \n",
      "__________________________________________________________________________________________________\n",
      "conv2d_261 (Conv2D)             (None, 7, 7, 192)    258048      activation_260[0][0]             \n",
      "__________________________________________________________________________________________________\n",
      "batch_normalization_261 (BatchN (None, 7, 7, 192)    576         conv2d_261[0][0]                 \n",
      "__________________________________________________________________________________________________\n",
      "activation_261 (Activation)     (None, 7, 7, 192)    0           batch_normalization_261[0][0]    \n",
      "__________________________________________________________________________________________________\n",
      "conv2d_258 (Conv2D)             (None, 7, 7, 192)    147456      mixed7[0][0]                     \n",
      "__________________________________________________________________________________________________\n",
      "conv2d_262 (Conv2D)             (None, 7, 7, 192)    258048      activation_261[0][0]             \n",
      "__________________________________________________________________________________________________\n",
      "batch_normalization_258 (BatchN (None, 7, 7, 192)    576         conv2d_258[0][0]                 \n",
      "__________________________________________________________________________________________________\n",
      "batch_normalization_262 (BatchN (None, 7, 7, 192)    576         conv2d_262[0][0]                 \n",
      "__________________________________________________________________________________________________\n",
      "activation_258 (Activation)     (None, 7, 7, 192)    0           batch_normalization_258[0][0]    \n",
      "__________________________________________________________________________________________________\n",
      "activation_262 (Activation)     (None, 7, 7, 192)    0           batch_normalization_262[0][0]    \n",
      "__________________________________________________________________________________________________\n",
      "conv2d_259 (Conv2D)             (None, 3, 3, 320)    552960      activation_258[0][0]             \n",
      "__________________________________________________________________________________________________\n",
      "conv2d_263 (Conv2D)             (None, 3, 3, 192)    331776      activation_262[0][0]             \n",
      "__________________________________________________________________________________________________\n",
      "batch_normalization_259 (BatchN (None, 3, 3, 320)    960         conv2d_259[0][0]                 \n",
      "__________________________________________________________________________________________________\n",
      "batch_normalization_263 (BatchN (None, 3, 3, 192)    576         conv2d_263[0][0]                 \n",
      "__________________________________________________________________________________________________\n",
      "activation_259 (Activation)     (None, 3, 3, 320)    0           batch_normalization_259[0][0]    \n",
      "__________________________________________________________________________________________________\n",
      "activation_263 (Activation)     (None, 3, 3, 192)    0           batch_normalization_263[0][0]    \n",
      "__________________________________________________________________________________________________\n",
      "max_pooling2d_11 (MaxPooling2D) (None, 3, 3, 768)    0           mixed7[0][0]                     \n",
      "__________________________________________________________________________________________________\n",
      "mixed8 (Concatenate)            (None, 3, 3, 1280)   0           activation_259[0][0]             \n",
      "                                                                 activation_263[0][0]             \n",
      "                                                                 max_pooling2d_11[0][0]           \n",
      "__________________________________________________________________________________________________\n",
      "conv2d_268 (Conv2D)             (None, 3, 3, 448)    573440      mixed8[0][0]                     \n",
      "__________________________________________________________________________________________________\n",
      "batch_normalization_268 (BatchN (None, 3, 3, 448)    1344        conv2d_268[0][0]                 \n",
      "__________________________________________________________________________________________________\n",
      "activation_268 (Activation)     (None, 3, 3, 448)    0           batch_normalization_268[0][0]    \n",
      "__________________________________________________________________________________________________\n",
      "conv2d_265 (Conv2D)             (None, 3, 3, 384)    491520      mixed8[0][0]                     \n",
      "__________________________________________________________________________________________________\n",
      "conv2d_269 (Conv2D)             (None, 3, 3, 384)    1548288     activation_268[0][0]             \n",
      "__________________________________________________________________________________________________\n",
      "batch_normalization_265 (BatchN (None, 3, 3, 384)    1152        conv2d_265[0][0]                 \n",
      "__________________________________________________________________________________________________\n",
      "batch_normalization_269 (BatchN (None, 3, 3, 384)    1152        conv2d_269[0][0]                 \n",
      "__________________________________________________________________________________________________\n",
      "activation_265 (Activation)     (None, 3, 3, 384)    0           batch_normalization_265[0][0]    \n",
      "__________________________________________________________________________________________________\n",
      "activation_269 (Activation)     (None, 3, 3, 384)    0           batch_normalization_269[0][0]    \n",
      "__________________________________________________________________________________________________\n",
      "conv2d_266 (Conv2D)             (None, 3, 3, 384)    442368      activation_265[0][0]             \n",
      "__________________________________________________________________________________________________\n",
      "conv2d_267 (Conv2D)             (None, 3, 3, 384)    442368      activation_265[0][0]             \n",
      "__________________________________________________________________________________________________\n",
      "conv2d_270 (Conv2D)             (None, 3, 3, 384)    442368      activation_269[0][0]             \n",
      "__________________________________________________________________________________________________\n",
      "conv2d_271 (Conv2D)             (None, 3, 3, 384)    442368      activation_269[0][0]             \n",
      "__________________________________________________________________________________________________\n",
      "average_pooling2d_25 (AveragePo (None, 3, 3, 1280)   0           mixed8[0][0]                     \n",
      "__________________________________________________________________________________________________\n",
      "conv2d_264 (Conv2D)             (None, 3, 3, 320)    409600      mixed8[0][0]                     \n",
      "__________________________________________________________________________________________________\n",
      "batch_normalization_266 (BatchN (None, 3, 3, 384)    1152        conv2d_266[0][0]                 \n",
      "__________________________________________________________________________________________________\n",
      "batch_normalization_267 (BatchN (None, 3, 3, 384)    1152        conv2d_267[0][0]                 \n",
      "__________________________________________________________________________________________________\n",
      "batch_normalization_270 (BatchN (None, 3, 3, 384)    1152        conv2d_270[0][0]                 \n",
      "__________________________________________________________________________________________________\n",
      "batch_normalization_271 (BatchN (None, 3, 3, 384)    1152        conv2d_271[0][0]                 \n",
      "__________________________________________________________________________________________________\n",
      "conv2d_272 (Conv2D)             (None, 3, 3, 192)    245760      average_pooling2d_25[0][0]       \n",
      "__________________________________________________________________________________________________\n",
      "batch_normalization_264 (BatchN (None, 3, 3, 320)    960         conv2d_264[0][0]                 \n",
      "__________________________________________________________________________________________________\n",
      "activation_266 (Activation)     (None, 3, 3, 384)    0           batch_normalization_266[0][0]    \n",
      "__________________________________________________________________________________________________\n",
      "activation_267 (Activation)     (None, 3, 3, 384)    0           batch_normalization_267[0][0]    \n",
      "__________________________________________________________________________________________________\n",
      "activation_270 (Activation)     (None, 3, 3, 384)    0           batch_normalization_270[0][0]    \n",
      "__________________________________________________________________________________________________\n",
      "activation_271 (Activation)     (None, 3, 3, 384)    0           batch_normalization_271[0][0]    \n",
      "__________________________________________________________________________________________________\n",
      "batch_normalization_272 (BatchN (None, 3, 3, 192)    576         conv2d_272[0][0]                 \n",
      "__________________________________________________________________________________________________\n",
      "activation_264 (Activation)     (None, 3, 3, 320)    0           batch_normalization_264[0][0]    \n",
      "__________________________________________________________________________________________________\n",
      "mixed9_0 (Concatenate)          (None, 3, 3, 768)    0           activation_266[0][0]             \n",
      "                                                                 activation_267[0][0]             \n",
      "__________________________________________________________________________________________________\n",
      "concatenate_4 (Concatenate)     (None, 3, 3, 768)    0           activation_270[0][0]             \n",
      "                                                                 activation_271[0][0]             \n",
      "__________________________________________________________________________________________________\n",
      "activation_272 (Activation)     (None, 3, 3, 192)    0           batch_normalization_272[0][0]    \n",
      "__________________________________________________________________________________________________\n",
      "mixed9 (Concatenate)            (None, 3, 3, 2048)   0           activation_264[0][0]             \n",
      "                                                                 mixed9_0[0][0]                   \n",
      "                                                                 concatenate_4[0][0]              \n",
      "                                                                 activation_272[0][0]             \n",
      "__________________________________________________________________________________________________\n",
      "conv2d_277 (Conv2D)             (None, 3, 3, 448)    917504      mixed9[0][0]                     \n",
      "__________________________________________________________________________________________________\n",
      "batch_normalization_277 (BatchN (None, 3, 3, 448)    1344        conv2d_277[0][0]                 \n",
      "__________________________________________________________________________________________________\n",
      "activation_277 (Activation)     (None, 3, 3, 448)    0           batch_normalization_277[0][0]    \n",
      "__________________________________________________________________________________________________\n",
      "conv2d_274 (Conv2D)             (None, 3, 3, 384)    786432      mixed9[0][0]                     \n",
      "__________________________________________________________________________________________________\n",
      "conv2d_278 (Conv2D)             (None, 3, 3, 384)    1548288     activation_277[0][0]             \n",
      "__________________________________________________________________________________________________\n",
      "batch_normalization_274 (BatchN (None, 3, 3, 384)    1152        conv2d_274[0][0]                 \n",
      "__________________________________________________________________________________________________\n",
      "batch_normalization_278 (BatchN (None, 3, 3, 384)    1152        conv2d_278[0][0]                 \n",
      "__________________________________________________________________________________________________\n",
      "activation_274 (Activation)     (None, 3, 3, 384)    0           batch_normalization_274[0][0]    \n",
      "__________________________________________________________________________________________________\n",
      "activation_278 (Activation)     (None, 3, 3, 384)    0           batch_normalization_278[0][0]    \n",
      "__________________________________________________________________________________________________\n",
      "conv2d_275 (Conv2D)             (None, 3, 3, 384)    442368      activation_274[0][0]             \n",
      "__________________________________________________________________________________________________\n",
      "conv2d_276 (Conv2D)             (None, 3, 3, 384)    442368      activation_274[0][0]             \n",
      "__________________________________________________________________________________________________\n",
      "conv2d_279 (Conv2D)             (None, 3, 3, 384)    442368      activation_278[0][0]             \n",
      "__________________________________________________________________________________________________\n",
      "conv2d_280 (Conv2D)             (None, 3, 3, 384)    442368      activation_278[0][0]             \n",
      "__________________________________________________________________________________________________\n",
      "average_pooling2d_26 (AveragePo (None, 3, 3, 2048)   0           mixed9[0][0]                     \n",
      "__________________________________________________________________________________________________\n",
      "conv2d_273 (Conv2D)             (None, 3, 3, 320)    655360      mixed9[0][0]                     \n",
      "__________________________________________________________________________________________________\n",
      "batch_normalization_275 (BatchN (None, 3, 3, 384)    1152        conv2d_275[0][0]                 \n",
      "__________________________________________________________________________________________________\n",
      "batch_normalization_276 (BatchN (None, 3, 3, 384)    1152        conv2d_276[0][0]                 \n",
      "__________________________________________________________________________________________________\n",
      "batch_normalization_279 (BatchN (None, 3, 3, 384)    1152        conv2d_279[0][0]                 \n",
      "__________________________________________________________________________________________________\n",
      "batch_normalization_280 (BatchN (None, 3, 3, 384)    1152        conv2d_280[0][0]                 \n",
      "__________________________________________________________________________________________________\n",
      "conv2d_281 (Conv2D)             (None, 3, 3, 192)    393216      average_pooling2d_26[0][0]       \n",
      "__________________________________________________________________________________________________\n",
      "batch_normalization_273 (BatchN (None, 3, 3, 320)    960         conv2d_273[0][0]                 \n",
      "__________________________________________________________________________________________________\n",
      "activation_275 (Activation)     (None, 3, 3, 384)    0           batch_normalization_275[0][0]    \n",
      "__________________________________________________________________________________________________\n",
      "activation_276 (Activation)     (None, 3, 3, 384)    0           batch_normalization_276[0][0]    \n",
      "__________________________________________________________________________________________________\n",
      "activation_279 (Activation)     (None, 3, 3, 384)    0           batch_normalization_279[0][0]    \n",
      "__________________________________________________________________________________________________\n",
      "activation_280 (Activation)     (None, 3, 3, 384)    0           batch_normalization_280[0][0]    \n",
      "__________________________________________________________________________________________________\n",
      "batch_normalization_281 (BatchN (None, 3, 3, 192)    576         conv2d_281[0][0]                 \n",
      "__________________________________________________________________________________________________\n",
      "activation_273 (Activation)     (None, 3, 3, 320)    0           batch_normalization_273[0][0]    \n",
      "__________________________________________________________________________________________________\n",
      "mixed9_1 (Concatenate)          (None, 3, 3, 768)    0           activation_275[0][0]             \n",
      "                                                                 activation_276[0][0]             \n",
      "__________________________________________________________________________________________________\n",
      "concatenate_5 (Concatenate)     (None, 3, 3, 768)    0           activation_279[0][0]             \n",
      "                                                                 activation_280[0][0]             \n",
      "__________________________________________________________________________________________________\n",
      "activation_281 (Activation)     (None, 3, 3, 192)    0           batch_normalization_281[0][0]    \n",
      "__________________________________________________________________________________________________\n",
      "mixed10 (Concatenate)           (None, 3, 3, 2048)   0           activation_273[0][0]             \n",
      "                                                                 mixed9_1[0][0]                   \n",
      "                                                                 concatenate_5[0][0]              \n",
      "                                                                 activation_281[0][0]             \n",
      "==================================================================================================\n",
…
    "local_weights_file = path_inception\n",
    "\n",
    "pre_trained_model = InceptionV3(input_shape=(150, 150, 3),\n",
    "    include_top=False,\n",
    "    weights=None)\n",
    "\n",
    "pre_trained_model.load_weights(local_weights_file)\n",
    "\n",
    "# Make all the layers in the pre-trained model non-trainable\n",
    "for layer in pre_trained_model.layers:\n",
    "  layer.trainable = False\n",
    "  \n",
    "# Print the model summary\n",
    "pre_trained_model.summary()\n",
    "\n",
    "# Expected Output is extremely large, but should end with:\n",
    "\n",
    "#batch_normalization_v1_281 (Bat (None, 3, 3, 192)    576         conv2d_281[0][0]                 \n",
    "#__________________________________________________________________________________________________\n",
    "#activation_273 (Activation)     (None, 3, 3, 320)    0           batch_normalization_v1_273[0][0] \n",
    "#__________________________________________________________________________________________________\n",
    "#mixed9_1 (Concatenate)          (None, 3, 3, 768)    0           activation_275[0][0]             \n",
    "#                                                                 activation_276[0][0]             \n",
    "#__________________________________________________________________________________________________\n",
    "#concatenate_5 (Concatenate)     (None, 3, 3, 768)    0           activation_279[0][0]             \n",
    "#                                                                 activation_280[0][0]             \n",
    "#__________________________________________________________________________________________________\n",
    "#activation_281 (Activation)     (None, 3, 3, 192)    0           batch_normalization_v1_281[0][0] \n",
    "#__________________________________________________________________________________________________\n",
    "#mixed10 (Concatenate)           (None, 3, 3, 2048)   0           activation_273[0][0]             \n",
    "#                                                                 mixed9_1[0][0]                   \n",
    "#                                                                 concatenate_5[0][0]              \n",
    "#                                                                 activation_281[0][0]             \n",
    "#==================================================================================================\n",
…
   "execution_count": 40,
   "metadata": {
    "colab": {},
    "colab_type": "code",
    "id": "BMXb913pbvFg"
   },
   "outputs": [
    {
     "name": "stdout",
     "output_type": "stream",
     "text": [
      "Model: \"model_3\"\n",
      "__________________________________________________________________________________________________\n",
      "Layer (type)                    Output Shape         Param #     Connected to                     \n",
      "==================================================================================================\n",
      "input_3 (InputLayer)            [(None, 150, 150, 3) 0                                            \n",
      "__________________________________________________________________________________________________\n",
      "conv2d_188 (Conv2D)             (None, 74, 74, 32)   864         input_3[0][0]                    \n",
      "__________________________________________________________________________________________________\n",
      "batch_normalization_188 (BatchN (None, 74, 74, 32)   96          conv2d_188[0][0]                 \n",
      "__________________________________________________________________________________________________\n",
      "activation_188 (Activation)     (None, 74, 74, 32)   0           batch_normalization_188[0][0]    \n",
      "__________________________________________________________________________________________________\n",
      "conv2d_189 (Conv2D)             (None, 72, 72, 32)   9216        activation_188[0][0]             \n",
      "__________________________________________________________________________________________________\n",
      "batch_normalization_189 (BatchN (None, 72, 72, 32)   96          conv2d_189[0][0]                 \n",
      "__________________________________________________________________________________________________\n",
      "activation_189 (Activation)     (None, 72, 72, 32)   0           batch_normalization_189[0][0]    \n",
      "__________________________________________________________________________________________________\n",
      "conv2d_190 (Conv2D)             (None, 72, 72, 64)   18432       activation_189[0][0]             \n",
      "__________________________________________________________________________________________________\n",
      "batch_normalization_190 (BatchN (None, 72, 72, 64)   192         conv2d_190[0][0]                 \n",
      "__________________________________________________________________________________________________\n",
      "activation_190 (Activation)     (None, 72, 72, 64)   0           batch_normalization_190[0][0]    \n",
      "__________________________________________________________________________________________________\n",
      "max_pooling2d_8 (MaxPooling2D)  (None, 35, 35, 64)   0           activation_190[0][0]             \n",
      "__________________________________________________________________________________________________\n",
      "conv2d_191 (Conv2D)             (None, 35, 35, 80)   5120        max_pooling2d_8[0][0]            \n",
      "__________________________________________________________________________________________________\n",
      "batch_normalization_191 (BatchN (None, 35, 35, 80)   240         conv2d_191[0][0]                 \n",
      "__________________________________________________________________________________________________\n",
      "activation_191 (Activation)     (None, 35, 35, 80)   0           batch_normalization_191[0][0]    \n",
      "__________________________________________________________________________________________________\n",
      "conv2d_192 (Conv2D)             (None, 33, 33, 192)  138240      activation_191[0][0]             \n",
      "__________________________________________________________________________________________________\n",
      "batch_normalization_192 (BatchN (None, 33, 33, 192)  576         conv2d_192[0][0]                 \n",
      "__________________________________________________________________________________________________\n",
      "activation_192 (Activation)     (None, 33, 33, 192)  0           batch_normalization_192[0][0]    \n",
      "__________________________________________________________________________________________________\n",
      "max_pooling2d_9 (MaxPooling2D)  (None, 16, 16, 192)  0           activation_192[0][0]             \n",
      "__________________________________________________________________________________________________\n",
      "conv2d_196 (Conv2D)             (None, 16, 16, 64)   12288       max_pooling2d_9[0][0]            \n",
      "__________________________________________________________________________________________________\n",
      "batch_normalization_196 (BatchN (None, 16, 16, 64)   192         conv2d_196[0][0]                 \n",
      "__________________________________________________________________________________________________\n",
      "activation_196 (Activation)     (None, 16, 16, 64)   0           batch_normalization_196[0][0]    \n",
      "__________________________________________________________________________________________________\n",
      "conv2d_194 (Conv2D)             (None, 16, 16, 48)   9216        max_pooling2d_9[0][0]            \n",
      "__________________________________________________________________________________________________\n",
      "conv2d_197 (Conv2D)             (None, 16, 16, 96)   55296       activation_196[0][0]             \n",
      "__________________________________________________________________________________________________\n",
      "batch_normalization_194 (BatchN (None, 16, 16, 48)   144         conv2d_194[0][0]                 \n",
      "__________________________________________________________________________________________________\n",
      "batch_normalization_197 (BatchN (None, 16, 16, 96)   288         conv2d_197[0][0]                 \n",
      "__________________________________________________________________________________________________\n",
      "activation_194 (Activation)     (None, 16, 16, 48)   0           batch_normalization_194[0][0]    \n",
      "__________________________________________________________________________________________________\n",
      "activation_197 (Activation)     (None, 16, 16, 96)   0           batch_normalization_197[0][0]    \n",
      "__________________________________________________________________________________________________\n",
      "average_pooling2d_18 (AveragePo (None, 16, 16, 192)  0           max_pooling2d_9[0][0]            \n",
      "__________________________________________________________________________________________________\n",
      "conv2d_193 (Conv2D)             (None, 16, 16, 64)   12288       max_pooling2d_9[0][0]            \n",
      "__________________________________________________________________________________________________\n",
      "conv2d_195 (Conv2D)             (None, 16, 16, 64)   76800       activation_194[0][0]             \n",
      "__________________________________________________________________________________________________\n",
      "conv2d_198 (Conv2D)             (None, 16, 16, 96)   82944       activation_197[0][0]             \n",
      "__________________________________________________________________________________________________\n",
      "conv2d_199 (Conv2D)             (None, 16, 16, 32)   6144        average_pooling2d_18[0][0]       \n",
      "__________________________________________________________________________________________________\n",
      "batch_normalization_193 (BatchN (None, 16, 16, 64)   192         conv2d_193[0][0]                 \n",
      "__________________________________________________________________________________________________\n",
      "batch_normalization_195 (BatchN (None, 16, 16, 64)   192         conv2d_195[0][0]                 \n",
      "__________________________________________________________________________________________________\n",
      "batch_normalization_198 (BatchN (None, 16, 16, 96)   288         conv2d_198[0][0]                 \n",
      "__________________________________________________________________________________________________\n",
      "batch_normalization_199 (BatchN (None, 16, 16, 32)   96          conv2d_199[0][0]                 \n",
      "__________________________________________________________________________________________________\n",
      "activation_193 (Activation)     (None, 16, 16, 64)   0           batch_normalization_193[0][0]    \n",
      "__________________________________________________________________________________________________\n",
      "activation_195 (Activation)     (None, 16, 16, 64)   0           batch_normalization_195[0][0]    \n",
      "__________________________________________________________________________________________________\n",
      "activation_198 (Activation)     (None, 16, 16, 96)   0           batch_normalization_198[0][0]    \n",
      "__________________________________________________________________________________________________\n",
      "activation_199 (Activation)     (None, 16, 16, 32)   0           batch_normalization_199[0][0]    \n",
      "__________________________________________________________________________________________________\n",
      "mixed0 (Concatenate)            (None, 16, 16, 256)  0           activation_193[0][0]             \n",
      "                                                                 activation_195[0][0]             \n",
      "                                                                 activation_198[0][0]             \n",
      "                                                                 activation_199[0][0]             \n",
      "__________________________________________________________________________________________________\n",
      "conv2d_203 (Conv2D)             (None, 16, 16, 64)   16384       mixed0[0][0]                     \n",
      "__________________________________________________________________________________________________\n",
      "batch_normalization_203 (BatchN (None, 16, 16, 64)   192         conv2d_203[0][0]                 \n",
      "__________________________________________________________________________________________________\n",
      "activation_203 (Activation)     (None, 16, 16, 64)   0           batch_normalization_203[0][0]    \n",
      "__________________________________________________________________________________________________\n",
      "conv2d_201 (Conv2D)             (None, 16, 16, 48)   12288       mixed0[0][0]                     \n",
      "__________________________________________________________________________________________________\n",
      "conv2d_204 (Conv2D)             (None, 16, 16, 96)   55296       activation_203[0][0]             \n",
      "__________________________________________________________________________________________________\n",
      "batch_normalization_201 (BatchN (None, 16, 16, 48)   144         conv2d_201[0][0]                 \n",
      "__________________________________________________________________________________________________\n",
      "batch_normalization_204 (BatchN (None, 16, 16, 96)   288         conv2d_204[0][0]                 \n",
      "__________________________________________________________________________________________________\n",
      "activation_201 (Activation)     (None, 16, 16, 48)   0           batch_normalization_201[0][0]    \n",
      "__________________________________________________________________________________________________\n",
      "activation_204 (Activation)     (None, 16, 16, 96)   0           batch_normalization_204[0][0]    \n",
      "__________________________________________________________________________________________________\n",
      "average_pooling2d_19 (AveragePo (None, 16, 16, 256)  0           mixed0[0][0]                     \n",
      "__________________________________________________________________________________________________\n",
      "conv2d_200 (Conv2D)             (None, 16, 16, 64)   16384       mixed0[0][0]                     \n",
      "__________________________________________________________________________________________________\n",
      "conv2d_202 (Conv2D)             (None, 16, 16, 64)   76800       activation_201[0][0]             \n",
      "__________________________________________________________________________________________________\n",
      "conv2d_205 (Conv2D)             (None, 16, 16, 96)   82944       activation_204[0][0]             \n",
      "__________________________________________________________________________________________________\n",
      "conv2d_206 (Conv2D)             (None, 16, 16, 64)   16384       average_pooling2d_19[0][0]       \n",
      "__________________________________________________________________________________________________\n",
      "batch_normalization_200 (BatchN (None, 16, 16, 64)   192         conv2d_200[0][0]                 \n",
      "__________________________________________________________________________________________________\n",
      "batch_normalization_202 (BatchN (None, 16, 16, 64)   192         conv2d_202[0][0]                 \n",
      "__________________________________________________________________________________________________\n",
      "batch_normalization_205 (BatchN (None, 16, 16, 96)   288         conv2d_205[0][0]                 \n",
      "__________________________________________________________________________________________________\n",
      "batch_normalization_206 (BatchN (None, 16, 16, 64)   192         conv2d_206[0][0]                 \n",
      "__________________________________________________________________________________________________\n",
      "activation_200 (Activation)     (None, 16, 16, 64)   0           batch_normalization_200[0][0]    \n",
      "__________________________________________________________________________________________________\n",
      "activation_202 (Activation)     (None, 16, 16, 64)   0           batch_normalization_202[0][0]    \n",
      "__________________________________________________________________________________________________\n",
      "activation_205 (Activation)     (None, 16, 16, 96)   0           batch_normalization_205[0][0]    \n",
      "__________________________________________________________________________________________________\n",
      "activation_206 (Activation)     (None, 16, 16, 64)   0           batch_normalization_206[0][0]    \n",
      "__________________________________________________________________________________________________\n",
      "mixed1 (Concatenate)            (None, 16, 16, 288)  0           activation_200[0][0]             \n",
      "                                                                 activation_202[0][0]             \n",
      "                                                                 activation_205[0][0]             \n",
      "                                                                 activation_206[0][0]             \n",
      "__________________________________________________________________________________________________\n",
      "conv2d_210 (Conv2D)             (None, 16, 16, 64)   18432       mixed1[0][0]                     \n",
      "__________________________________________________________________________________________________\n",
      "batch_normalization_210 (BatchN (None, 16, 16, 64)   192         conv2d_210[0][0]                 \n",
      "__________________________________________________________________________________________________\n",
      "activation_210 (Activation)     (None, 16, 16, 64)   0           batch_normalization_210[0][0]    \n",
      "__________________________________________________________________________________________________\n",
      "conv2d_208 (Conv2D)             (None, 16, 16, 48)   13824       mixed1[0][0]                     \n",
      "__________________________________________________________________________________________________\n",
      "conv2d_211 (Conv2D)             (None, 16, 16, 96)   55296       activation_210[0][0]             \n",
      "__________________________________________________________________________________________________\n",
      "batch_normalization_208 (BatchN (None, 16, 16, 48)   144         conv2d_208[0][0]                 \n",
      "__________________________________________________________________________________________________\n",
      "batch_normalization_211 (BatchN (None, 16, 16, 96)   288         conv2d_211[0][0]                 \n",
      "__________________________________________________________________________________________________\n",
      "activation_208 (Activation)     (None, 16, 16, 48)   0           batch_normalization_208[0][0]    \n",
      "__________________________________________________________________________________________________\n",
      "activation_211 (Activation)     (None, 16, 16, 96)   0           batch_normalization_211[0][0]    \n",
      "__________________________________________________________________________________________________\n",
      "average_pooling2d_20 (AveragePo (None, 16, 16, 288)  0           mixed1[0][0]                     \n",
      "__________________________________________________________________________________________________\n",
      "conv2d_207 (Conv2D)             (None, 16, 16, 64)   18432       mixed1[0][0]                     \n",
      "__________________________________________________________________________________________________\n",
      "conv2d_209 (Conv2D)             (None, 16, 16, 64)   76800       activation_208[0][0]             \n",
      "__________________________________________________________________________________________________\n",
      "conv2d_212 (Conv2D)             (None, 16, 16, 96)   82944       activation_211[0][0]             \n",
      "__________________________________________________________________________________________________\n",
      "conv2d_213 (Conv2D)             (None, 16, 16, 64)   18432       average_pooling2d_20[0][0]       \n",
      "__________________________________________________________________________________________________\n",
      "batch_normalization_207 (BatchN (None, 16, 16, 64)   192         conv2d_207[0][0]                 \n",
      "__________________________________________________________________________________________________\n",
      "batch_normalization_209 (BatchN (None, 16, 16, 64)   192         conv2d_209[0][0]                 \n",
      "__________________________________________________________________________________________________\n",
      "batch_normalization_212 (BatchN (None, 16, 16, 96)   288         conv2d_212[0][0]                 \n",
      "__________________________________________________________________________________________________\n",
      "batch_normalization_213 (BatchN (None, 16, 16, 64)   192         conv2d_213[0][0]                 \n",
      "__________________________________________________________________________________________________\n",
      "activation_207 (Activation)     (None, 16, 16, 64)   0           batch_normalization_207[0][0]    \n",
      "__________________________________________________________________________________________________\n",
      "activation_209 (Activation)     (None, 16, 16, 64)   0           batch_normalization_209[0][0]    \n",
      "__________________________________________________________________________________________________\n",
      "activation_212 (Activation)     (None, 16, 16, 96)   0           batch_normalization_212[0][0]    \n",
      "__________________________________________________________________________________________________\n",
      "activation_213 (Activation)     (None, 16, 16, 64)   0           batch_normalization_213[0][0]    \n",
      "__________________________________________________________________________________________________\n",
      "mixed2 (Concatenate)            (None, 16, 16, 288)  0           activation_207[0][0]             \n",
      "                                                                 activation_209[0][0]             \n",
      "                                                                 activation_212[0][0]             \n",
      "                                                                 activation_213[0][0]             \n",
      "__________________________________________________________________________________________________\n",
      "conv2d_215 (Conv2D)             (None, 16, 16, 64)   18432       mixed2[0][0]                     \n",
      "__________________________________________________________________________________________________\n",
      "batch_normalization_215 (BatchN (None, 16, 16, 64)   192         conv2d_215[0][0]                 \n",
      "__________________________________________________________________________________________________\n",
      "activation_215 (Activation)     (None, 16, 16, 64)   0           batch_normalization_215[0][0]    \n",
      "__________________________________________________________________________________________________\n",
      "conv2d_216 (Conv2D)             (None, 16, 16, 96)   55296       activation_215[0][0]             \n",
      "__________________________________________________________________________________________________\n",
      "batch_normalization_216 (BatchN (None, 16, 16, 96)   288         conv2d_216[0][0]                 \n",
      "__________________________________________________________________________________________________\n",
      "activation_216 (Activation)     (None, 16, 16, 96)   0           batch_normalization_216[0][0]    \n",
      "__________________________________________________________________________________________________\n",
      "conv2d_214 (Conv2D)             (None, 7, 7, 384)    995328      mixed2[0][0]                     \n",
      "__________________________________________________________________________________________________\n",
      "conv2d_217 (Conv2D)             (None, 7, 7, 96)     82944       activation_216[0][0]             \n",
      "__________________________________________________________________________________________________\n",
      "batch_normalization_214 (BatchN (None, 7, 7, 384)    1152        conv2d_214[0][0]                 \n",
      "__________________________________________________________________________________________________\n",
      "batch_normalization_217 (BatchN (None, 7, 7, 96)     288         conv2d_217[0][0]                 \n",
      "__________________________________________________________________________________________________\n",
      "activation_214 (Activation)     (None, 7, 7, 384)    0           batch_normalization_214[0][0]    \n",
      "__________________________________________________________________________________________________\n",
      "activation_217 (Activation)     (None, 7, 7, 96)     0           batch_normalization_217[0][0]    \n",
      "__________________________________________________________________________________________________\n",
      "max_pooling2d_10 (MaxPooling2D) (None, 7, 7, 288)    0           mixed2[0][0]                     \n",
      "__________________________________________________________________________________________________\n",
      "mixed3 (Concatenate)            (None, 7, 7, 768)    0           activation_214[0][0]             \n",
      "                                                                 activation_217[0][0]             \n",
      "                                                                 max_pooling2d_10[0][0]           \n",
      "__________________________________________________________________________________________________\n",
      "conv2d_222 (Conv2D)             (None, 7, 7, 128)    98304       mixed3[0][0]                     \n",
      "__________________________________________________________________________________________________\n",
      "batch_normalization_222 (BatchN (None, 7, 7, 128)    384         conv2d_222[0][0]                 \n",
      "__________________________________________________________________________________________________\n",
      "activation_222 (Activation)     (None, 7, 7, 128)    0           batch_normalization_222[0][0]    \n",
      "__________________________________________________________________________________________________\n",
      "conv2d_223 (Conv2D)             (None, 7, 7, 128)    114688      activation_222[0][0]             \n",
      "__________________________________________________________________________________________________\n",
      "batch_normalization_223 (BatchN (None, 7, 7, 128)    384         conv2d_223[0][0]                 \n",
      "__________________________________________________________________________________________________\n",
      "activation_223 (Activation)     (None, 7, 7, 128)    0           batch_normalization_223[0][0]    \n",
      "__________________________________________________________________________________________________\n",
      "conv2d_219 (Conv2D)             (None, 7, 7, 128)    98304       mixed3[0][0]                     \n",
      "__________________________________________________________________________________________________\n",
      "conv2d_224 (Conv2D)             (None, 7, 7, 128)    114688      activation_223[0][0]             \n",
      "__________________________________________________________________________________________________\n",
      "batch_normalization_219 (BatchN (None, 7, 7, 128)    384         conv2d_219[0][0]                 \n",
      "__________________________________________________________________________________________________\n",
      "batch_normalization_224 (BatchN (None, 7, 7, 128)    384         conv2d_224[0][0]                 \n",
      "__________________________________________________________________________________________________\n",
      "activation_219 (Activation)     (None, 7, 7, 128)    0           batch_normalization_219[0][0]    \n",
      "__________________________________________________________________________________________________\n",
      "activation_224 (Activation)     (None, 7, 7, 128)    0           batch_normalization_224[0][0]    \n",
      "__________________________________________________________________________________________________\n",
      "conv2d_220 (Conv2D)             (None, 7, 7, 128)    114688      activation_219[0][0]             \n",
      "__________________________________________________________________________________________________\n",
      "conv2d_225 (Conv2D)             (None, 7, 7, 128)    114688      activation_224[0][0]             \n",
      "__________________________________________________________________________________________________\n",
      "batch_normalization_220 (BatchN (None, 7, 7, 128)    384         conv2d_220[0][0]                 \n",
      "__________________________________________________________________________________________________\n",
      "batch_normalization_225 (BatchN (None, 7, 7, 128)    384         conv2d_225[0][0]                 \n",
      "__________________________________________________________________________________________________\n",
      "activation_220 (Activation)     (None, 7, 7, 128)    0           batch_normalization_220[0][0]    \n",
      "__________________________________________________________________________________________________\n",
      "activation_225 (Activation)     (None, 7, 7, 128)    0           batch_normalization_225[0][0]    \n",
      "__________________________________________________________________________________________________\n",
      "average_pooling2d_21 (AveragePo (None, 7, 7, 768)    0           mixed3[0][0]                     \n",
      "__________________________________________________________________________________________________\n",
      "conv2d_218 (Conv2D)             (None, 7, 7, 192)    147456      mixed3[0][0]                     \n",
      "__________________________________________________________________________________________________\n",
      "conv2d_221 (Conv2D)             (None, 7, 7, 192)    172032      activation_220[0][0]             \n",
      "__________________________________________________________________________________________________\n",
      "conv2d_226 (Conv2D)             (None, 7, 7, 192)    172032      activation_225[0][0]             \n",
      "__________________________________________________________________________________________________\n",
      "conv2d_227 (Conv2D)             (None, 7, 7, 192)    147456      average_pooling2d_21[0][0]       \n",
      "__________________________________________________________________________________________________\n",
      "batch_normalization_218 (BatchN (None, 7, 7, 192)    576         conv2d_218[0][0]                 \n",
      "__________________________________________________________________________________________________\n",
      "batch_normalization_221 (BatchN (None, 7, 7, 192)    576         conv2d_221[0][0]                 \n",
      "__________________________________________________________________________________________________\n",
      "batch_normalization_226 (BatchN (None, 7, 7, 192)    576         conv2d_226[0][0]                 \n",
      "__________________________________________________________________________________________________\n",
      "batch_normalization_227 (BatchN (None, 7, 7, 192)    576         conv2d_227[0][0]                 \n",
      "__________________________________________________________________________________________________\n",
      "activation_218 (Activation)     (None, 7, 7, 192)    0           batch_normalization_218[0][0]    \n",
      "__________________________________________________________________________________________________\n",
      "activation_221 (Activation)     (None, 7, 7, 192)    0           batch_normalization_221[0][0]    \n",
      "__________________________________________________________________________________________________\n",
      "activation_226 (Activation)     (None, 7, 7, 192)    0           batch_normalization_226[0][0]    \n",
      "__________________________________________________________________________________________________\n",
      "activation_227 (Activation)     (None, 7, 7, 192)    0           batch_normalization_227[0][0]    \n",
      "__________________________________________________________________________________________________\n",
      "mixed4 (Concatenate)            (None, 7, 7, 768)    0           activation_218[0][0]             \n",
      "                                                                 activation_221[0][0]             \n",
      "                                                                 activation_226[0][0]             \n",
      "                                                                 activation_227[0][0]             \n",
      "__________________________________________________________________________________________________\n",
      "conv2d_232 (Conv2D)             (None, 7, 7, 160)    122880      mixed4[0][0]                     \n",
      "__________________________________________________________________________________________________\n",
      "batch_normalization_232 (BatchN (None, 7, 7, 160)    480         conv2d_232[0][0]                 \n",
      "__________________________________________________________________________________________________\n",
      "activation_232 (Activation)     (None, 7, 7, 160)    0           batch_normalization_232[0][0]    \n",
      "__________________________________________________________________________________________________\n",
      "conv2d_233 (Conv2D)             (None, 7, 7, 160)    179200      activation_232[0][0]             \n",
      "__________________________________________________________________________________________________\n",
      "batch_normalization_233 (BatchN (None, 7, 7, 160)    480         conv2d_233[0][0]                 \n",
      "__________________________________________________________________________________________________\n",
      "activation_233 (Activation)     (None, 7, 7, 160)    0           batch_normalization_233[0][0]    \n",
      "__________________________________________________________________________________________________\n",
      "conv2d_229 (Conv2D)             (None, 7, 7, 160)    122880      mixed4[0][0]                     \n",
      "__________________________________________________________________________________________________\n",
      "conv2d_234 (Conv2D)             (None, 7, 7, 160)    179200      activation_233[0][0]             \n",
      "__________________________________________________________________________________________________\n",
      "batch_normalization_229 (BatchN (None, 7, 7, 160)    480         conv2d_229[0][0]                 \n",
      "__________________________________________________________________________________________________\n",
      "batch_normalization_234 (BatchN (None, 7, 7, 160)    480         conv2d_234[0][0]                 \n",
      "__________________________________________________________________________________________________\n",
      "activation_229 (Activation)     (None, 7, 7, 160)    0           batch_normalization_229[0][0]    \n",
      "__________________________________________________________________________________________________\n",
      "activation_234 (Activation)     (None, 7, 7, 160)    0           batch_normalization_234[0][0]    \n",
      "__________________________________________________________________________________________________\n",
      "conv2d_230 (Conv2D)             (None, 7, 7, 160)    179200      activation_229[0][0]             \n",
      "__________________________________________________________________________________________________\n",
      "conv2d_235 (Conv2D)             (None, 7, 7, 160)    179200      activation_234[0][0]             \n",
      "__________________________________________________________________________________________________\n",
      "batch_normalization_230 (BatchN (None, 7, 7, 160)    480         conv2d_230[0][0]                 \n",
      "__________________________________________________________________________________________________\n",
      "batch_normalization_235 (BatchN (None, 7, 7, 160)    480         conv2d_235[0][0]                 \n",
      "__________________________________________________________________________________________________\n",
      "activation_230 (Activation)     (None, 7, 7, 160)    0           batch_normalization_230[0][0]    \n",
      "__________________________________________________________________________________________________\n",
      "activation_235 (Activation)     (None, 7, 7, 160)    0           batch_normalization_235[0][0]    \n",
      "__________________________________________________________________________________________________\n",
      "average_pooling2d_22 (AveragePo (None, 7, 7, 768)    0           mixed4[0][0]                     \n",
      "__________________________________________________________________________________________________\n",
      "conv2d_228 (Conv2D)             (None, 7, 7, 192)    147456      mixed4[0][0]                     \n",
      "__________________________________________________________________________________________________\n",
      "conv2d_231 (Conv2D)             (None, 7, 7, 192)    215040      activation_230[0][0]             \n",
      "__________________________________________________________________________________________________\n",
      "conv2d_236 (Conv2D)             (None, 7, 7, 192)    215040      activation_235[0][0]             \n",
      "__________________________________________________________________________________________________\n",
      "conv2d_237 (Conv2D)             (None, 7, 7, 192)    147456      average_pooling2d_22[0][0]       \n",
      "__________________________________________________________________________________________________\n",
      "batch_normalization_228 (BatchN (None, 7, 7, 192)    576         conv2d_228[0][0]                 \n",
      "__________________________________________________________________________________________________\n",
      "batch_normalization_231 (BatchN (None, 7, 7, 192)    576         conv2d_231[0][0]                 \n",
      "__________________________________________________________________________________________________\n",
      "batch_normalization_236 (BatchN (None, 7, 7, 192)    576         conv2d_236[0][0]                 \n",
      "__________________________________________________________________________________________________\n",
      "batch_normalization_237 (BatchN (None, 7, 7, 192)    576         conv2d_237[0][0]                 \n",
      "__________________________________________________________________________________________________\n",
      "activation_228 (Activation)     (None, 7, 7, 192)    0           batch_normalization_228[0][0]    \n",
      "__________________________________________________________________________________________________\n",
      "activation_231 (Activation)     (None, 7, 7, 192)    0           batch_normalization_231[0][0]    \n",
      "__________________________________________________________________________________________________\n",
      "activation_236 (Activation)     (None, 7, 7, 192)    0           batch_normalization_236[0][0]    \n",
      "__________________________________________________________________________________________________\n",
      "activation_237 (Activation)     (None, 7, 7, 192)    0           batch_normalization_237[0][0]    \n",
      "__________________________________________________________________________________________________\n",
      "mixed5 (Concatenate)            (None, 7, 7, 768)    0           activation_228[0][0]             \n",
      "                                                                 activation_231[0][0]             \n",
      "                                                                 activation_236[0][0]             \n",
      "                                                                 activation_237[0][0]             \n",
      "__________________________________________________________________________________________________\n",
      "conv2d_242 (Conv2D)             (None, 7, 7, 160)    122880      mixed5[0][0]                     \n",
      "__________________________________________________________________________________________________\n",
      "batch_normalization_242 (BatchN (None, 7, 7, 160)    480         conv2d_242[0][0]                 \n",
      "__________________________________________________________________________________________________\n",
      "activation_242 (Activation)     (None, 7, 7, 160)    0           batch_normalization_242[0][0]    \n",
      "__________________________________________________________________________________________________\n",
      "conv2d_243 (Conv2D)             (None, 7, 7, 160)    179200      activation_242[0][0]             \n",
      "__________________________________________________________________________________________________\n",
      "batch_normalization_243 (BatchN (None, 7, 7, 160)    480         conv2d_243[0][0]                 \n",
      "__________________________________________________________________________________________________\n",
      "activation_243 (Activation)     (None, 7, 7, 160)    0           batch_normalization_243[0][0]    \n",
      "__________________________________________________________________________________________________\n",
      "conv2d_239 (Conv2D)             (None, 7, 7, 160)    122880      mixed5[0][0]                     \n",
      "__________________________________________________________________________________________________\n",
      "conv2d_244 (Conv2D)             (None, 7, 7, 160)    179200      activation_243[0][0]             \n",
      "__________________________________________________________________________________________________\n",
      "batch_normalization_239 (BatchN (None, 7, 7, 160)    480         conv2d_239[0][0]                 \n",
      "__________________________________________________________________________________________________\n",
      "batch_normalization_244 (BatchN (None, 7, 7, 160)    480         conv2d_244[0][0]                 \n",
      "__________________________________________________________________________________________________\n",
      "activation_239 (Activation)     (None, 7, 7, 160)    0           batch_normalization_239[0][0]    \n",
      "__________________________________________________________________________________________________\n",
      "activation_244 (Activation)     (None, 7, 7, 160)    0           batch_normalization_244[0][0]    \n",
      "__________________________________________________________________________________________________\n",
      "conv2d_240 (Conv2D)             (None, 7, 7, 160)    179200      activation_239[0][0]             \n",
      "__________________________________________________________________________________________________\n",
      "conv2d_245 (Conv2D)             (None, 7, 7, 160)    179200      activation_244[0][0]             \n",
      "__________________________________________________________________________________________________\n",
      "batch_normalization_240 (BatchN (None, 7, 7, 160)    480         conv2d_240[0][0]                 \n",
      "__________________________________________________________________________________________________\n",
      "batch_normalization_245 (BatchN (None, 7, 7, 160)    480         conv2d_245[0][0]                 \n",
      "__________________________________________________________________________________________________\n",
      "activation_240 (Activation)     (None, 7, 7, 160)    0           batch_normalization_240[0][0]    \n",
      "__________________________________________________________________________________________________\n",
      "activation_245 (Activation)     (None, 7, 7, 160)    0           batch_normalization_245[0][0]    \n",
      "__________________________________________________________________________________________________\n",
      "average_pooling2d_23 (AveragePo (None, 7, 7, 768)    0           mixed5[0][0]                     \n",
      "__________________________________________________________________________________________________\n",
      "conv2d_238 (Conv2D)             (None, 7, 7, 192)    147456      mixed5[0][0]                     \n",
      "__________________________________________________________________________________________________\n",
      "conv2d_241 (Conv2D)             (None, 7, 7, 192)    215040      activation_240[0][0]             \n",
      "__________________________________________________________________________________________________\n",
      "conv2d_246 (Conv2D)             (None, 7, 7, 192)    215040      activation_245[0][0]             \n",
      "__________________________________________________________________________________________________\n",
      "conv2d_247 (Conv2D)             (None, 7, 7, 192)    147456      average_pooling2d_23[0][0]       \n",
      "__________________________________________________________________________________________________\n",
      "batch_normalization_238 (BatchN (None, 7, 7, 192)    576         conv2d_238[0][0]                 \n",
      "__________________________________________________________________________________________________\n",
      "batch_normalization_241 (BatchN (None, 7, 7, 192)    576         conv2d_241[0][0]                 \n",
      "__________________________________________________________________________________________________\n",
      "batch_normalization_246 (BatchN (None, 7, 7, 192)    576         conv2d_246[0][0]                 \n",
      "__________________________________________________________________________________________________\n",
      "batch_normalization_247 (BatchN (None, 7, 7, 192)    576         conv2d_247[0][0]                 \n",
      "__________________________________________________________________________________________________\n",
      "activation_238 (Activation)     (None, 7, 7, 192)    0           batch_normalization_238[0][0]    \n",
      "__________________________________________________________________________________________________\n",
      "activation_241 (Activation)     (None, 7, 7, 192)    0           batch_normalization_241[0][0]    \n",
      "__________________________________________________________________________________________________\n",
      "activation_246 (Activation)     (None, 7, 7, 192)    0           batch_normalization_246[0][0]    \n",
      "__________________________________________________________________________________________________\n",
      "activation_247 (Activation)     (None, 7, 7, 192)    0           batch_normalization_247[0][0]    \n",
      "__________________________________________________________________________________________________\n",
      "mixed6 (Concatenate)            (None, 7, 7, 768)    0           activation_238[0][0]             \n",
      "                                                                 activation_241[0][0]             \n",
      "                                                                 activation_246[0][0]             \n",
      "                                                                 activation_247[0][0]             \n",
      "__________________________________________________________________________________________________\n",
      "conv2d_252 (Conv2D)             (None, 7, 7, 192)    147456      mixed6[0][0]                     \n",
      "__________________________________________________________________________________________________\n",
      "batch_normalization_252 (BatchN (None, 7, 7, 192)    576         conv2d_252[0][0]                 \n",
      "__________________________________________________________________________________________________\n",
      "activation_252 (Activation)     (None, 7, 7, 192)    0           batch_normalization_252[0][0]    \n",
      "__________________________________________________________________________________________________\n",
      "conv2d_253 (Conv2D)             (None, 7, 7, 192)    258048      activation_252[0][0]             \n",
      "__________________________________________________________________________________________________\n",
      "batch_normalization_253 (BatchN (None, 7, 7, 192)    576         conv2d_253[0][0]                 \n",
      "__________________________________________________________________________________________________\n",
      "activation_253 (Activation)     (None, 7, 7, 192)    0           batch_normalization_253[0][0]    \n",
      "__________________________________________________________________________________________________\n",
      "conv2d_249 (Conv2D)             (None, 7, 7, 192)    147456      mixed6[0][0]                     \n",
      "__________________________________________________________________________________________________\n",
      "conv2d_254 (Conv2D)             (None, 7, 7, 192)    258048      activation_253[0][0]             \n",
      "__________________________________________________________________________________________________\n",
      "batch_normalization_249 (BatchN (None, 7, 7, 192)    576         conv2d_249[0][0]                 \n",
      "__________________________________________________________________________________________________\n",
      "batch_normalization_254 (BatchN (None, 7, 7, 192)    576         conv2d_254[0][0]                 \n",
      "__________________________________________________________________________________________________\n",
      "activation_249 (Activation)     (None, 7, 7, 192)    0           batch_normalization_249[0][0]    \n",
      "__________________________________________________________________________________________________\n",
      "activation_254 (Activation)     (None, 7, 7, 192)    0           batch_normalization_254[0][0]    \n",
      "__________________________________________________________________________________________________\n",
      "conv2d_250 (Conv2D)             (None, 7, 7, 192)    258048      activation_249[0][0]             \n",
      "__________________________________________________________________________________________________\n",
      "conv2d_255 (Conv2D)             (None, 7, 7, 192)    258048      activation_254[0][0]             \n",
      "__________________________________________________________________________________________________\n",
      "batch_normalization_250 (BatchN (None, 7, 7, 192)    576         conv2d_250[0][0]                 \n",
      "__________________________________________________________________________________________________\n",
      "batch_normalization_255 (BatchN (None, 7, 7, 192)    576         conv2d_255[0][0]                 \n",
      "__________________________________________________________________________________________________\n",
      "activation_250 (Activation)     (None, 7, 7, 192)    0           batch_normalization_250[0][0]    \n",
      "__________________________________________________________________________________________________\n",
      "activation_255 (Activation)     (None, 7, 7, 192)    0           batch_normalization_255[0][0]    \n",
      "__________________________________________________________________________________________________\n",
      "average_pooling2d_24 (AveragePo (None, 7, 7, 768)    0           mixed6[0][0]                     \n",
      "__________________________________________________________________________________________________\n",
      "conv2d_248 (Conv2D)             (None, 7, 7, 192)    147456      mixed6[0][0]                     \n",
      "__________________________________________________________________________________________________\n",
      "conv2d_251 (Conv2D)             (None, 7, 7, 192)    258048      activation_250[0][0]             \n",
      "__________________________________________________________________________________________________\n",
      "conv2d_256 (Conv2D)             (None, 7, 7, 192)    258048      activation_255[0][0]             \n",
      "__________________________________________________________________________________________________\n",
      "conv2d_257 (Conv2D)             (None, 7, 7, 192)    147456      average_pooling2d_24[0][0]       \n",
      "__________________________________________________________________________________________________\n",
      "batch_normalization_248 (BatchN (None, 7, 7, 192)    576         conv2d_248[0][0]                 \n",
      "__________________________________________________________________________________________________\n",
      "batch_normalization_251 (BatchN (None, 7, 7, 192)    576         conv2d_251[0][0]                 \n",
      "__________________________________________________________________________________________________\n",
      "batch_normalization_256 (BatchN (None, 7, 7, 192)    576         conv2d_256[0][0]                 \n",
      "__________________________________________________________________________________________________\n",
      "batch_normalization_257 (BatchN (None, 7, 7, 192)    576         conv2d_257[0][0]                 \n",
      "__________________________________________________________________________________________________\n",
      "activation_248 (Activation)     (None, 7, 7, 192)    0           batch_normalization_248[0][0]    \n",
      "__________________________________________________________________________________________________\n",
      "activation_251 (Activation)     (None, 7, 7, 192)    0           batch_normalization_251[0][0]    \n",
      "__________________________________________________________________________________________________\n",
      "activation_256 (Activation)     (None, 7, 7, 192)    0           batch_normalization_256[0][0]    \n",
      "__________________________________________________________________________________________________\n",
      "activation_257 (Activation)     (None, 7, 7, 192)    0           batch_normalization_257[0][0]    \n",
      "__________________________________________________________________________________________________\n",
      "mixed7 (Concatenate)            (None, 7, 7, 768)    0           activation_248[0][0]             \n",
      "                                                                 activation_251[0][0]             \n",
      "                                                                 activation_256[0][0]             \n",
      "                                                                 activation_257[0][0]             \n",
      "__________________________________________________________________________________________________\n",
      "flatten_3 (Flatten)             (None, 37632)        0           mixed7[0][0]                     \n",
      "__________________________________________________________________________________________________\n",
      "dense_6 (Dense)                 (None, 1024)         38536192    flatten_3[0][0]                  \n",
      "__________________________________________________________________________________________________\n",
      "dropout_3 (Dropout)             (None, 1024)         0           dense_6[0][0]                    \n",
      "__________________________________________________________________________________________________\n",
      "dense_7 (Dense)                 (None, 1)            1025        dropout_3[0][0]                  \n",
      "==================================================================================================\n",
      "Total params: 47,512,481\n",
      "Trainable params: 38,537,217\n",
      "Non-trainable params: 8,975,264\n",
      "__________________________________________________________________________________________________\n"
     ]
    }
   ],
…
    "# Add a dropout rate of 0.2\n",
    "x = layers.Dropout(.2)(x)                  \n",
    "# Add a final sigmoid layer for classification\n",
    "x = layers.Dense  (1, activation='sigmoid')(x)           \n",
    "\n",
    "model = Model( pre_trained_model.input, x) \n",
    "\n",
    "model.compile(optimizer = RMSprop(lr=0.0001), \n",
    "              loss = 'binary_crossentropy', \n",
    "              metrics = ['acc'])\n",
    "\n",
    "model.summary()\n",
    "\n",
    "# Expected output will be large. Last few lines should be:\n",
    "\n",
    "# mixed7 (Concatenate)            (None, 7, 7, 768)    0           activation_248[0][0]             \n",
    "#                                                                  activation_251[0][0]             \n",
    "#                                                                  activation_256[0][0]             \n",
    "#                                                                  activation_257[0][0]             \n",
    "# __________________________________________________________________________________________________\n",
    "# flatten_4 (Flatten)             (None, 37632)        0           mixed7[0][0]                     \n",
    "# __________________________________________________________________________________________________\n",
    "# dense_8 (Dense)                 (None, 1024)         38536192    flatten_4[0][0]                  \n",
    "# __________________________________________________________________________________________________\n",
    "# dropout_4 (Dropout)             (None, 1024)         0           dense_8[0][0]                    \n",
    "# __________________________________________________________________________________________________\n",
    "# dense_9 (Dense)                 (None, 1)            1025        dropout_4[0][0]                  \n",
    "# ==================================================================================================\n",
    "# Total params: 47,512,481\n",
    "# Trainable params: 38,537,217\n",
    "# Non-trainable params: 8,975,264\n"
   ]
  },
  {
   "cell_type": "code",
   "execution_count": 41,
   "metadata": {
    "colab": {},
    "colab_type": "code",
    "id": "HrnL_IQ8knWA"
…
